train/dht_anomaly_model.tflite (tflite, 1784 bytes, 3 tensors)

sequential/dense/BiasAdd/ReadVariableOp f4 [8]
00000000: 3b9f 40be 28a6 58be 0000 0000 b18d b73e
00000010: 9bf3 85be e5c3 25be 55c8 3b3f dd7d 3f3f
-0.18810742 -0.21157134 0.0 0.3585029 -0.2616242 -0.16188009 0.7335256 0.7480143

sequential/dense/MatMul f4 [8, 2]
00000000: 998b 25bf 5edf ee3e cfaa 313f 7af4 36be
00000010: 0262 01bf 1481 e3be ef32 6fbd 4b00 9f3e
00000020: 3a48 c83d c180 763e e02c 3abf 9039 043f
00000030: 9e3c 233f f7b1 9fbe 0ea4 4b3f fe2c c6be
-0.64666134 0.4665479 0.6940126 -0.17866698 -0.50540173 -0.44434416 -0.058398183 0.3105491
0.09779401 0.24072553 -0.72724724 0.51650333 0.6376437 -0.31190464 0.795472 -0.387062

sequential/dense_1/MatMul f4 [1, 8]
00000000: 6040 57bd 972f bbbf e834 d73d 40aa fb3e
00000010: 5cf8 b7bd e576 6fbc 0b87 a03f 6e2b 893f
-0.052551627 -1.4623898 0.10508138 0.49153328 -0.08982918 -0.014615749 1.2541212 1.0716379
